{"format": "torch", "nodes": [{"name": "encoder", "id": 140253100153168, "class_name": "EncoderBurgess(\n  (conv1): Conv2d(1, 32, kernel_size=(4, 4), stride=(2, 2), padding=(1, 1))\n  (conv2): Conv2d(32, 32, kernel_size=(4, 4), stride=(2, 2), padding=(1, 1))\n  (conv3): Conv2d(32, 32, kernel_size=(4, 4), stride=(2, 2), padding=(1, 1))\n  (conv_64): Conv2d(32, 32, kernel_size=(4, 4), stride=(2, 2), padding=(1, 1))\n  (lin1): Linear(in_features=512, out_features=256, bias=True)\n  (lin2): Linear(in_features=256, out_features=256, bias=True)\n  (mu_logvar_gen): Linear(in_features=256, out_features=20, bias=True)\n)", "parameters": [["conv1.weight", [32, 1, 4, 4]], ["conv1.bias", [32]], ["conv2.weight", [32, 32, 4, 4]], ["conv2.bias", [32]], ["conv3.weight", [32, 32, 4, 4]], ["conv3.bias", [32]], ["conv_64.weight", [32, 32, 4, 4]], ["conv_64.bias", [32]], ["lin1.weight", [256, 512]], ["lin1.bias", [256]], ["lin2.weight", [256, 256]], ["lin2.bias", [256]], ["mu_logvar_gen.weight", [20, 256]], ["mu_logvar_gen.bias", [20]]], "output_shape": [[64, 10], [64, 10]], "num_parameters": [512, 32, 16384, 32, 16384, 32, 16384, 32, 131072, 256, 65536, 256, 5120, 20]}, {"name": "decoder", "id": 140253098473168, "class_name": "DecoderBurgess(\n  (lin1): Linear(in_features=10, out_features=256, bias=True)\n  (lin2): Linear(in_features=256, out_features=256, bias=True)\n  (lin3): Linear(in_features=256, out_features=512, bias=True)\n  (convT_64): ConvTranspose2d(32, 32, kernel_size=(4, 4), stride=(2, 2), padding=(1, 1))\n  (convT1): ConvTranspose2d(32, 32, kernel_size=(4, 4), stride=(2, 2), padding=(1, 1))\n  (convT2): ConvTranspose2d(32, 32, kernel_size=(4, 4), stride=(2, 2), padding=(1, 1))\n  (convT3): ConvTranspose2d(32, 1, kernel_size=(4, 4), stride=(2, 2), padding=(1, 1))\n)", "parameters": [["lin1.weight", [256, 10]], ["lin1.bias", [256]], ["lin2.weight", [256, 256]], ["lin2.bias", [256]], ["lin3.weight", [512, 256]], ["lin3.bias", [512]], ["convT_64.weight", [32, 32, 4, 4]], ["convT_64.bias", [32]], ["convT1.weight", [32, 32, 4, 4]], ["convT1.bias", [32]], ["convT2.weight", [32, 32, 4, 4]], ["convT2.bias",
…
